…
model.add(MaxPooling1D(2))
model.add(Flatten())
model.add(Dense(512, activation=""relu""))
model.add(Dropout(0.5))
model.add(Dense(1, activation=""sigmoid""))
model.summary()
# compile the model
model.compile(loss='binary_crossentropy', optimizer= opt, metrics=['accuracy'])
Sadly my model has bad performance (acc = 55% more or less and loss = 0.69). Do you have any suggestion to increase my performance? Is there something wrong?Here the model.summary()Layer (type)                 Output Shape              Param #   
=================================================================
conv1d_3 (Conv1D)            (None, 32, 16)            64        
_________________________________________________________________
batch_normalization_1 (Batch (None, 32, 16)            64        
_________________________________________________________________
max_pooling1d_3 (MaxPooling1 (None, 16, 16)            0         
_________________________________________________________________
conv1d_4 (Conv1D)            (None, 14, 32)            1568      
_________________________________________________________________
max_pooling1d_4 (MaxPooling1 (None, 7, 32)             0         
_________________________________________________________________
flatten_1 (Flatten)          (None, 224)               0         
_________________________________________________________________
dense_2 (Dense)              (None, 512)               115200    
_________________________________________________________________
dropout_1 (Dropout)          (None, 512)               0         
_________________________________________________________________
dense_3 (Dense)              (None, 1)                 513       
=================================================================
",,"Discussion,"
17,https://www.reddit.com/r/MachineLearning/comments/e22gmc/discussion_wont_max_pooling_mess_up_a_lot_of/,e22gmc,discussion_wont_max_pooling_mess_up_a_lot_of,avdalim,0.67,1,2019-11-26 19:51:45,0,3,"Tech,","As far as I understood it, Max Pooling takes the maximum positive value and not absolute values.In this
…
